…
    "    tf.keras.layers.Dense(128, activation='relu'),\n",
    "    tf.keras.layers.Dense(1, activation='sigmoid')\n",
    "])"
   ]
  },
  {
   "cell_type": "code",
   "execution_count": 9,
   "id": "c2187140",
   "metadata": {},
   "outputs": [
    {
     "name": "stdout",
     "output_type": "stream",
     "text": [
      "Model: \"sequential\"\n",
      "_________________________________________________________________\n",
      "Layer (type)                 Output Shape              Param #   \n",
      "=================================================================\n",
      "conv2d (Conv2D)              (None, 126, 126, 64)      1792      \n",
      "_________________________________________________________________\n",
      "max_pooling2d (MaxPooling2D) (None, 63, 63, 64)        0         \n",
      "_________________________________________________________________\n",
      "conv2d_1 (Conv2D)            (None, 61, 61, 16)        9232      \n",
      "_________________________________________________________________\n",
      "max_pooling2d_1 (MaxPooling2 (None, 30, 30, 16)        0         \n",
      "_________________________________________________________________\n",
      "dropout (Dropout)            (None, 30, 30, 16)        0         \n",
      "_________________________________________________________________\n",
      "flatten (Flatten)            (None, 14400)             0         \n",
      "_________________________________________________________________\n",
      "dense (Dense)                (None, 256)               3686656   \n",
      "_________________________________________________________________\n",
      "dropout_1 (Dropout)          (None, 256)               0         \n",
      "_________________________________________________________________\n",
      "dense_1 (Dense)              (None, 128)               32896     \n",
      "_________________________________________________________________\n",
      "dense_2 (Dense)              (None, 1)                 129       \n",
      "=================================================================\n",
      "Total params: 3,730,705\n",
      "Trainable params: 3,730,705\n",
      "Non-trainable params: 0\n",
      "_________________________________________________________________\n"
     ]
    }
   ],
   "source": [
    "model.summary()"
   ]
  },
  {
   "cell_type": "code",
   "execution_count": 10,
   "id": "5ee4bbbf",
…
